…
SplitNN                                  --                        --
├─MLP: 1                                 --                        --
│    └─ModuleList: 2-1                   --                        --
├─ModuleList: 1-1                        --                        --
│    └─MLP: 2                            --                        --
│    │    └─ModuleList: 3-1              --                        101,150
│    └─MLP: 2                            --                        --
│    │    └─ModuleList: 3-2              --                        5,350
│    └─MLP: 2-2                          [64, 50]                  --
│    └─MLP: 2-3                          [64, 50]                  --
├─MLP: 1-2                               [64, 10]                  --
│    └─ModuleList: 2-1                   --                        --
│    │    └─Linear: 3-3                  [64, 100]                 10,100
│    │    └─Linear: 3-4                  [64, 10]                  1,010
==========================================================================================
Total params: 117,610
Trainable params: 117,610
Non-trainable params: 0
Total mult-adds (M): 7.53
==========================================================================================
Input size (MB): 0.25
Forward/backward pass size (MB): 0.21
Params size (MB): 0.47
Estimated Total Size (MB): 0.93
==========================================================================================
Merge model summary
==========================================================================================
Layer (type:depth-idx)                   Output Shape              Param #
==========================================================================================
ConvModel                                --                        --
├─Conv2d: 1-1                            [1, 8, 7, 10]             48
├─Dropout: 1-2                           [1, 560]                  --
├─Linear: 1-3                            [1, 400]                  224,400
├─Dropout: 1-4                           [1, 400]                  --
├─Linear: 1-5                            [1, 1]                    401
==========================================================================================
Total params: 224,849
Trainable params: 224,849
Non-trainable params: 0
Total mult-adds (M): 0.23
==========================================================================================
Input size (MB): 0.00
Forward/backward pass size (MB): 0.01
Params size (MB): 0.90
Estimated Total Size (MB): 0.91
==========================================================================================
…
