…
SplitNN                                  --                        --
├─MLP: 1                                 --                        --
│    └─ModuleList: 2-1                   --                        --
├─ModuleList: 1-1                        --                        --
│    └─MLP: 2                            --                        --
│    │    └─ModuleList: 3-1              --                        8,850
│    └─MLP: 2                            --                        --
│    │    └─ModuleList: 3-2              --                        13,650
│    └─MLP: 2-2                          [32, 50]                  --
│    └─MLP: 2-3                          [32, 50]                  --
├─MLP: 1-2                               [32, 10]                  --
│    └─ModuleList: 2-1                   --                        --
│    │    └─Linear: 3-3                  [32, 100]                 10,100
│    │    └─Linear: 3-4                  [32, 10]                  1,010
==========================================================================================
Total params: 33,610
Trainable params: 33,610
Non-trainable params: 0
Total mult-adds (M): 1.08
==========================================================================================
Input size (MB): 0.02
Forward/backward pass size (MB): 0.10
Params size (MB): 0.13
Estimated Total Size (MB): 0.26
==========================================================================================
Merge model summary
==========================================================================================
Layer (type:depth-idx)                   Output Shape              Param #
==========================================================================================
ConvModel                                --                        --
├─Conv2d: 1-1                            [1, 8, 54, 10]            48
├─Dropout: 1-2                           [1, 4320]                 --
├─Linear: 1-3                            [1, 400]                  1,728,400
├─Dropout: 1-4                           [1, 400]                  --
├─Linear: 1-5                            [1, 1]                    401
==========================================================================================
Total params: 1,728,849
Trainable params: 1,728,849
Non-trainable params: 0
Total mult-adds (M): 1.75
==========================================================================================
Input size (MB): 0.00
Forward/backward pass size (MB): 0.04
Params size (MB): 6.92
Estimated Total Size (MB): 6.96
==========================================================================================
…
