…
Calculating noise scale
Standard variance of sim_score: 670924.21
Adding noise of scale 5.9460045848996864e-05 to sim_scores
Adding noise of scale 5.9460045848996864e-05 to sim_scores
Adding noise of scale 5.9460045848996864e-05 to sim_scores
Preparing time (sec): 4
Initializing dataloader
Done
Prepare for training
Start training
================================================================================
                                    Kernel Shape Output Shape  Params  \
Layer                                                                   
0_local_models.0.fc_layers.Linear_0    [68, 200]   [128, 200]   13800   
1_local_models.0.fc_layers.Linear_1   [200, 100]   [128, 100]   20100   
2_local_models.1.fc_layers.Linear_0     [8, 200]   [128, 200]    1800   
3_local_models.1.fc_layers.Linear_1   [200, 100]   [128, 100]   20100   
4_agg_model.fc_layers.Linear_0        [200, 400]   [128, 400]   80400   
5_agg_model.fc_layers.Linear_1          [400, 1]     [128, 1]     401   

                                     Mult-Adds  
Layer                                           
0_local_models.0.fc_layers.Linear_0      13600  
1_local_models.0.fc_layers.Linear_1      20000  
2_local_models.1.fc_layers.Linear_0       1600  
3_local_models.1.fc_layers.Linear_1      20000  
4_agg_model.fc_layers.Linear_0           80000  
5_agg_model.fc_layers.Linear_1             400  
--------------------------------------------------------------------------------
…
