…
SplitNN                                  --                        --
├─MLP: 1                                 --                        --
│    └─ModuleList: 2-1                   --                        --
├─ModuleList: 1-1                        --                        --
│    └─MLP: 2                            --                        --
│    │    └─ModuleList: 3-1              --                        14,150
│    └─MLP: 2                            --                        --
│    │    └─ModuleList: 3-2              --                        56,950
│    └─MLP: 2-2                          [128, 50]                 --
│    └─MLP: 2-3                          [128, 50]                 --
├─MLP: 1-2                               [128, 10]                 --
│    └─ModuleList: 2-1                   --                        --
│    │    └─Linear: 3-3                  [128, 100]                10,100
│    │    └─Linear: 3-4                  [128, 10]                 1,010
==========================================================================================
Total params: 82,210
Trainable params: 82,210
Non-trainable params: 0
Total mult-adds (M): 10.52
==========================================================================================
Input size (MB): 0.31
Forward/backward pass size (MB): 0.42
Params size (MB): 0.33
Estimated Total Size (MB): 1.06
==========================================================================================
Merge model summary
==========================================================================================
Layer (type:depth-idx)                   Output Shape              Param #
==========================================================================================
ConvModel                                --                        --
├─Conv2d: 1-1                            [1, 8, 14, 10]            48
├─Dropout: 1-2                           [1, 1120]                 --
├─Linear: 1-3                            [1, 400]                  448,400
├─Dropout: 1-4                           [1, 400]                  --
├─Linear: 1-5                            [1, 1]                    401
==========================================================================================
Total params: 448,849
Trainable params: 448,849
Non-trainable params: 0
Total mult-adds (M): 0.46
==========================================================================================
Input size (MB): 0.00
Forward/backward pass size (MB): 0.01
Params size (MB): 1.80
Estimated Total Size (MB): 1.81
==========================================================================================
…
