…
Calculating noise scale
Adding noise of scale 0.0 to sim_scores
Adding noise of scale 0.0 to sim_scores
Adding noise of scale 0.0 to sim_scores
Filter dataset to top 40
Generating top 40 dataset
Generating top 40 dataset
Generating top 40 dataset
Preparing time (sec): 15
Initializing dataloader
Done
Prepare for training
Start training
================================================================================
                                    Kernel Shape Output Shape  Params  \
Layer                                                                   
0_local_models.0.fc_layers.Linear_0    [11, 100]    [64, 100]    1200   
1_local_models.0.fc_layers.Linear_1    [100, 50]     [64, 50]    5050   
2_local_models.1.fc_layers.Linear_0    [10, 100]    [64, 100]    1100   
3_local_models.1.fc_layers.Linear_1    [100, 50]     [64, 50]    5050   
4_agg_model.fc_layers.Linear_0        [100, 100]    [64, 100]   10100   
5_agg_model.fc_layers.Linear_1          [100, 1]      [64, 1]     101   

                                     Mult-Adds  
Layer                                           
0_local_models.0.fc_layers.Linear_0       1100  
1_local_models.0.fc_layers.Linear_1       5000  
2_local_models.1.fc_layers.Linear_0       1000  
3_local_models.1.fc_layers.Linear_1       5000  
4_agg_model.fc_layers.Linear_0           10000  
5_agg_model.fc_layers.Linear_1             100  
--------------------------------------------------------------------------------
…
