…
==========================================================================================
Input size (MB): 0.04
Forward/backward pass size (MB): 0.61
Params size (MB): 0.22
Estimated Total Size (MB): 0.88
==========================================================================================
Merge model summary
==========================================================================================
Layer (type:depth-idx)                   Output Shape              Param #
==========================================================================================
ConvModel                                [1, 1]                    --
├─Conv2d: 1-1                            [1, 8, 106, 10]           64
├─Dropout: 1-2                           [1, 8480]                 --
├─Linear: 1-3                            [1, 400]                  3,392,400
├─Dropout: 1-4                           [1, 400]                  --
├─Linear: 1-5                            [1, 1]                    401
==========================================================================================
Total params: 3,392,865
Trainable params: 3,392,865
Non-trainable params: 0
Total mult-adds (M): 3.46
==========================================================================================
Input size (MB): 0.00
Forward/backward pass size (MB): 0.07
Params size (MB): 13.57
Estimated Total Size (MB): 13.65
==========================================================================================
Similarity model summary
==========================================================================================
Layer (type:depth-idx)                   Output Shape              Param #
==========================================================================================
MLP                                      [1, 1]                    --
├─ModuleList: 1-1                        --                        --
│    └─Linear: 2-1                       [1, 10]                   20
│    └─Linear: 2-2                       [1, 1]                    11
==========================================================================================
Total params: 31
Trainable params: 31
Non-trainable params: 0
Total mult-adds (M): 0.00
==========================================================================================
Input size (MB): 0.00
Forward/backward pass size (MB): 0.00
Params size (MB): 0.00
Estimated Total Size (MB): 0.00
==========================================================================================
…
