…
==========================================================================================
Input size (MB): 0.06
Forward/backward pass size (MB): 0.31
Params size (MB): 0.09
Estimated Total Size (MB): 0.46
==========================================================================================
Merge model summary
==========================================================================================
Layer (type:depth-idx)                   Output Shape              Param #
==========================================================================================
ConvModel                                [1, 1]                    --
├─Conv2d: 1-1                            [1, 8, 56, 10]            64
├─Dropout: 1-2                           [1, 4480]                 --
├─Linear: 1-3                            [1, 400]                  1,792,400
├─Dropout: 1-4                           [1, 400]                  --
├─Linear: 1-5                            [1, 1]                    401
==========================================================================================
Total params: 1,792,865
Trainable params: 1,792,865
Non-trainable params: 0
Total mult-adds (M): 1.83
==========================================================================================
Input size (MB): 0.00
Forward/backward pass size (MB): 0.04
Params size (MB): 7.17
Estimated Total Size (MB): 7.21
==========================================================================================
Similarity model summary
==========================================================================================
Layer (type:depth-idx)                   Output Shape              Param #
==========================================================================================
MLP                                      [1, 1]                    --
├─ModuleList: 1-1                        --                        --
│    └─Linear: 2-1                       [1, 10]                   20
│    └─Linear: 2-2                       [1, 1]                    11
==========================================================================================
Total params: 31
Trainable params: 31
Non-trainable params: 0
Total mult-adds (M): 0.00
==========================================================================================
Input size (MB): 0.00
Forward/backward pass size (MB): 0.00
Params size (MB): 0.00
Estimated Total Size (MB): 0.00
==========================================================================================
…
