…
SplitNN                                  --                        --
├─MLP: 1                                 --                        --
│    └─ModuleList: 2-1                   --                        --
├─ModuleList: 1-1                        --                        --
│    └─MLP: 2                            --                        --
│    │    └─ModuleList: 3-1              --                        30,900
│    └─MLP: 2                            --                        --
│    │    └─ModuleList: 3-2              --                        21,300
│    └─MLP: 2-2                          [128, 100]                --
│    └─MLP: 2-3                          [128, 100]                --
├─MLP: 1-2                               [128, 10]                 --
│    └─ModuleList: 2-1                   --                        --
│    │    └─Linear: 3-3                  [128, 100]                20,100
│    │    └─Linear: 3-4                  [128, 10]                 1,010
==========================================================================================
Total params: 73,310
Trainable params: 73,310
Non-trainable params: 0
Total mult-adds (M): 9.38
==========================================================================================
Input size (MB): 0.03
Forward/backward pass size (MB): 0.73
Params size (MB): 0.29
Estimated Total Size (MB): 1.05
==========================================================================================
Merge model summary
==========================================================================================
Layer (type:depth-idx)                   Output Shape              Param #
==========================================================================================
ConvModel                                --                        --
├─Conv2d: 1-1                            [1, 8, 106, 10]           64
├─Dropout: 1-2                           [1, 8480]                 --
├─Linear: 1-3                            [1, 400]                  3,392,400
├─Dropout: 1-4                           [1, 400]                  --
├─Linear: 1-5                            [1, 1]                    401
==========================================================================================
Total params: 3,392,865
Trainable params: 3,392,865
Non-trainable params: 0
Total mult-adds (M): 3.46
==========================================================================================
Input size (MB): 0.00
Forward/backward pass size (MB): 0.07
Params size (MB): 13.57
Estimated Total Size (MB): 13.65
…
