…
│    └─MLP: 2                            --                        --
│    │    └─ModuleList: 3-2              --                        21,300
│    └─MLP: 2                            --                        --
│    │    └─ModuleList: 3-3              --                        21,300
│    └─MLP: 2                            --                        --
│    │    └─ModuleList: 3-4              --                        21,300
│    └─MLP: 2                            --                        --
│    │    └─ModuleList: 3-5              --                        21,100
│    └─MLP: 2-2                          [128, 100]                --
│    └─MLP: 2-3                          [128, 100]                --
│    └─MLP: 2-4                          [128, 100]                --
│    └─MLP: 2-5                          [128, 100]                --
│    └─MLP: 2-6                          [128, 100]                --
├─MLP: 1-2                               [128, 10]                 --
│    └─ModuleList: 2-1                   --                        --
│    │    └─Linear: 3-6                  [128, 100]                50,100
│    │    └─Linear: 3-7                  [128, 10]                 1,010
==========================================================================================
Total params: 167,010
Trainable params: 167,010
Non-trainable params: 0
Total mult-adds (M): 21.38
==========================================================================================
Input size (MB): 0.04
Forward/backward pass size (MB): 1.65
Params size (MB): 0.67
Estimated Total Size (MB): 2.35
==========================================================================================
Merge model summary
==========================================================================================
Layer (type:depth-idx)                   Output Shape              Param #
==========================================================================================
ConvModel                                --                        --
├─Conv2d: 1-1                            [1, 8, 106, 10]           64
├─Dropout: 1-2                           [1, 8480]                 --
├─Linear: 1-3                            [1, 400]                  3,392,400
├─Dropout: 1-4                           [1, 400]                  --
├─Linear: 1-5                            [1, 1]                    401
==========================================================================================
Total params: 3,392,865
Trainable params: 3,392,865
Non-trainable params: 0
Total mult-adds (M): 3.46
==========================================================================================
Input size (MB): 0.00
Forward/backward pass size (MB): 0.07
Params size (MB): 13.57
Estimated Total Size (MB): 13.65
…
