…
Standard variance of sim_score: 257.74, Mean: -751.42
Adding noise of scale 0.030951230789942445 to sim_scores
Adding noise of scale 0.030951230789942445 to sim_scores
Adding noise of scale 0.030951230789942445 to sim_scores
Generating top1 dataset
Generating top1 dataset
Generating top1 dataset
Preparing time (sec): 13
Loading data
Prepare for training
Start training
================================================================================
                                    Kernel Shape Output Shape  Params  \
Layer                                                                   
0_local_models.0.fc_layers.Linear_0    [90, 100]  [4096, 100]    9100   
1_local_models.0.fc_layers.Linear_1   [100, 100]  [4096, 100]   10100   
2_local_models.1.fc_layers.Linear_0   [156, 100]  [4096, 100]   15700   
3_local_models.1.fc_layers.Linear_1   [100, 100]  [4096, 100]   10100   
4_agg_model.fc_layers.Linear_0        [200, 200]  [4096, 200]   40200   
5_agg_model.fc_layers.Linear_1          [200, 1]    [4096, 1]     201   

                                     Mult-Adds  
Layer                                           
0_local_models.0.fc_layers.Linear_0       9000  
1_local_models.0.fc_layers.Linear_1      10000  
2_local_models.1.fc_layers.Linear_0      15600  
3_local_models.1.fc_layers.Linear_1      10000  
4_agg_model.fc_layers.Linear_0           40000  
5_agg_model.fc_layers.Linear_1             200  
--------------------------------------------------------------------------------
…
