…
Standard variance of sim_score: 127215.21
Adding noise of scale 0.8052659238694154 to sim_scores
Adding noise of scale 0.8052659238694154 to sim_scores
Adding noise of scale 0.8052659238694154 to sim_scores
Generating top1 dataset
Generating top1 dataset
Generating top1 dataset
Preparing time (sec): 166
Loading data
Prepare for training
Start training
================================================================================
                                    Kernel Shape Output Shape  Params  \
Layer                                                                   
0_local_models.0.fc_layers.Linear_0    [960, 10]   [4096, 10]    9610   
1_local_models.0.fc_layers.Linear_1    [10, 100]  [4096, 100]    1100   
2_local_models.1.fc_layers.Linear_0      [2, 10]   [4096, 10]      30   
3_local_models.1.fc_layers.Linear_1     [10, 10]   [4096, 10]     110   
4_agg_model.fc_layers.Linear_0         [110, 10]   [4096, 10]    1110   
5_agg_model.fc_layers.Linear_1           [10, 1]    [4096, 1]      11   

                                     Mult-Adds  
Layer                                           
0_local_models.0.fc_layers.Linear_0       9600  
1_local_models.0.fc_layers.Linear_1       1000  
2_local_models.1.fc_layers.Linear_0         20  
3_local_models.1.fc_layers.Linear_1        100  
4_agg_model.fc_layers.Linear_0            1100  
5_agg_model.fc_layers.Linear_1              10  
--------------------------------------------------------------------------------
…
