…
       'ind_wine and spirits', 'ind_wireless', 'ind_writing and editing',
       'sr_10001+', 'sr_1001 - 5000', 'sr_11 - 50', 'sr_201 - 500',
       'sr_5001 - 10000', 'sr_501 - 1000', 'sr_51 - 200'],
      dtype='object', length=157)
Loading data from cache
Done
Preparing time (sec): 0
Prepare for training
Start training
================================================================================
                                    Kernel Shape Output Shape  Params  \
Layer                                                                   
0_local_models.0.fc_layers.Linear_0    [90, 100]  [4096, 100]    9100   
1_local_models.0.fc_layers.Linear_1   [100, 100]  [4096, 100]   10100   
2_local_models.1.fc_layers.Linear_0   [156, 100]  [4096, 100]   15700   
3_local_models.1.fc_layers.Linear_1   [100, 100]  [4096, 100]   10100   
4_agg_model.fc_layers.Linear_0        [200, 200]  [4096, 200]   40200   
5_agg_model.fc_layers.Linear_1          [200, 1]    [4096, 1]     201   

                                     Mult-Adds  
Layer                                           
0_local_models.0.fc_layers.Linear_0       9000  
1_local_models.0.fc_layers.Linear_1      10000  
2_local_models.1.fc_layers.Linear_0      15600  
3_local_models.1.fc_layers.Linear_1      10000  
4_agg_model.fc_layers.Linear_0           40000  
5_agg_model.fc_layers.Linear_1             200  
--------------------------------------------------------------------------------
…
